Namespace(dataset='proteinnet', exp_name='edge_features_contact_prot_bert', features=['contact_map'], max_seq_len=512, min_attn=0.3, model='bert', model_dir=None, model_version='prot_bert', no_cuda=False, num_sequences=5000, seed=123, shuffle=True)
Layers: 30
Heads: 16
BertModel(
  (embeddings): BertEmbeddings(
    (word_embeddings): Embedding(30, 1024, padding_idx=0)
    (position_embeddings): Embedding(40000, 1024)
    (token_type_embeddings): Embedding(2, 1024)
    (LayerNorm): LayerNorm((1024,), eps=1e-12, elementwise_affine=True)
    (dropout): Dropout(p=0.0, inplace=False)
  )
  (encoder): BertEncoder(
    (layer): ModuleList(
      (0): BertLayer(
        (attention): BertAttention(
          (self): BertSelfAttention(
            (query): Linear(in_features=1024, out_features=1024, bias=True)
            (key): Linear(in_features=1024, out_features=1024, bias=True)
            (value): Linear(in_features=1024, out_features=1024, bias=True)
            (dropout): Dropout(p=0.0, inplace=False)
          )
          (output): BertSelfOutput(
            (dense): Linear(in_features=1024, out_features=1024, bias=True)
            (LayerNorm): LayerNorm((1024,), eps=1e-12, elementwise_affine=True)
            (dropout): Dropout(p=0.0, inplace=False)
          )
        )
        (intermediate): BertIntermediate(
          (dense): Linear(in_features=1024, out_features=4096, bias=True)
        )
        (output): BertOutput(
          (dense): Linear(in_features=4096, out_features=1024, bias=True)
          (LayerNorm): LayerNorm((1024,), eps=1e-12, elementwise_affine=True)
          (dropout): Dropout(p=0.0, inplace=False)
        )
      )
      (1): BertLayer(
        (attention): BertAttention(
          (self): BertSelfAttention(
            (query): Linear(in_features=1024, out_features=1024, bias=True)
            (key): Linear(in_features=1024, out_features=1024, bias=True)
            (value): Linear(in_features=1024, out_features=1024, bias=True)
            (dropout): Dropout(p=0.0, inplace=False)
          )
          (output): BertSelfOutput(
            (dense): Linear(in_features=1024, out_features=1024, bias=True)
            (LayerNorm): LayerNorm((1024,), eps=1e-12, elementwise_affine=True)
            (dropout): Dropout(p=0.0, inplace=False)
          )
        )
        (intermediate): BertIntermediate(
          (dense): Linear(in_features=1024, out_features=4096, bias=True)
        )
        (output): BertOutput(
          (dense): Linear(in_features=4096, out_features=1024, bias=True)
          (LayerNorm): LayerNorm((1024,), eps=1e-12, elementwise_affine=True)
          (dropout): Dropout(p=0.0, inplace=False)
        )
      )
      (2): BertLayer(
        (attention): BertAttention(
          (self): BertSelfAttention(
            (query): Linear(in_features=1024, out_features=1024, bias=True)
            (key): Linear(in_features=1024, out_features=1024, bias=True)
            (value): Linear(in_features=1024, out_features=1024, bias=True)
            (dropout): Dropout(p=0.0, inplace=False)
          )
          (output): BertSelfOutput(
            (dense): Linear(in_features=1024, out_features=1024, bias=True)
            (LayerNorm): LayerNorm((1024,), eps=1e-12, elementwise_affine=True)
            (dropout): Dropout(p=0.0, inplace=False)
          )
        )
        (intermediate): BertIntermediate(
          (dense): Linear(in_features=1024, out_features=4096, bias=True)
        )
        (output): BertOutput(
          (dense): Linear(in_features=4096, out_features=1024, bias=True)
          (LayerNorm): LayerNorm((1024,), eps=1e-12, elementwise_affine=True)
          (dropout): Dropout(p=0.0, inplace=False)
        )
      )
      (3): BertLayer(
        (attention): BertAttention(
          (self): BertSelfAttention(
            (query): Linear(in_features=1024, out_features=1024, bias=True)
            (key): Linear(in_features=1024, out_features=1024, bias=True)
            (value): Linear(in_features=1024, out_features=1024, bias=True)
            (dropout): Dropout(p=0.0, inplace=False)
          )
          (output): BertSelfOutput(
            (dense): Linear(in_features=1024, out_features=1024, bias=True)
            (LayerNorm): LayerNorm((1024,), eps=1e-12, elementwise_affine=True)
            (dropout): Dropout(p=0.0, inplace=False)
          )
        )
        (intermediate): BertIntermediate(
          (dense): Linear(in_features=1024, out_features=4096, bias=True)
        )
        (output): BertOutput(
          (dense): Linear(in_features=4096, out_features=1024, bias=True)
          (LayerNorm): LayerNorm((1024,), eps=1e-12, elementwise_affine=True)
          (dropout): Dropout(p=0.0, inplace=False)
        )
      )
      (4): BertLayer(
        (attention): BertAttention(
          (self): BertSelfAttention(
            (query): Linear(in_features=1024, out_features=1024, bias=True)
            (key): Linear(in_features=1024, out_features=1024, bias=True)
            (value): Linear(in_features=1024, out_features=1024, bias=True)
            (dropout): Dropout(p=0.0, inplace=False)
          )
          (output): BertSelfOutput(
            (dense): Linear(in_features=1024, out_features=1024, bias=True)
            (LayerNorm): LayerNorm((1024,), eps=1e-12, elementwise_affine=True)
            (dropout): Dropout(p=0.0, inplace=False)
          )
        )
        (intermediate): BertIntermediate(
          (dense): Linear(in_features=1024, out_features=4096, bias=True)
        )
        (output): BertOutput(
          (dense): Linear(in_features=4096, out_features=1024, bias=True)
          (LayerNorm): LayerNorm((1024,), eps=1e-12, elementwise_affine=True)
          (dropout): Dropout(p=0.0, inplace=False)
        )
      )
      (5): BertLayer(
        (attention): BertAttention(
          (self): BertSelfAttention(
            (query): Linear(in_features=1024, out_features=1024, bias=True)
            (key): Linear(in_features=1024, out_features=1024, bias=True)
            (value): Linear(in_features=1024, out_features=1024, bias=True)
            (dropout): Dropout(p=0.0, inplace=False)
          )
          (output): BertSelfOutput(
            (dense): Linear(in_features=1024, out_features=1024, bias=True)
            (LayerNorm): LayerNorm((1024,), eps=1e-12, elementwise_affine=True)
            (dropout): Dropout(p=0.0, inplace=False)
          )
        )
        (intermediate): BertIntermediate(
          (dense): Linear(in_features=1024, out_features=4096, bias=True)
        )
        (output): BertOutput(
          (dense): Linear(in_features=4096, out_features=1024, bias=True)
          (LayerNorm): LayerNorm((1024,), eps=1e-12, elementwise_affine=True)
          (dropout): Dropout(p=0.0, inplace=False)
        )
      )
      (6): BertLayer(
        (attention): BertAttention(
          (self): BertSelfAttention(
            (query): Linear(in_features=1024, out_features=1024, bias=True)
            (key): Linear(in_features=1024, out_features=1024, bias=True)
            (value): Linear(in_features=1024, out_features=1024, bias=True)
            (dropout): Dropout(p=0.0, inplace=False)
          )
          (output): BertSelfOutput(
            (dense): Linear(in_features=1024, out_features=1024, bias=True)
            (LayerNorm): LayerNorm((1024,), eps=1e-12, elementwise_affine=True)
            (dropout): Dropout(p=0.0, inplace=False)
          )
        )
        (intermediate): BertIntermediate(
          (dense): Linear(in_features=1024, out_features=4096, bias=True)
        )
        (output): BertOutput(
          (dense): Linear(in_features=4096, out_features=1024, bias=True)
          (LayerNorm): LayerNorm((1024,), eps=1e-12, elementwise_affine=True)
          (dropout): Dropout(p=0.0, inplace=False)
        )
      )
      (7): BertLayer(
        (attention): BertAttention(
          (self): BertSelfAttention(
            (query): Linear(in_features=1024, out_features=1024, bias=True)
            (key): Linear(in_features=1024, out_features=1024, bias=True)
            (value): Linear(in_features=1024, out_features=1024, bias=True)
            (dropout): Dropout(p=0.0, inplace=False)
          )
          (output): BertSelfOutput(
            (dense): Linear(in_features=1024, out_features=1024, bias=True)
            (LayerNorm): LayerNorm((1024,), eps=1e-12, elementwise_affine=True)
            (dropout): Dropout(p=0.0, inplace=False)
          )
        )
        (intermediate): BertIntermediate(
          (dense): Linear(in_features=1024, out_features=4096, bias=True)
        )
        (output): BertOutput(
          (dense): Linear(in_features=4096, out_features=1024, bias=True)
          (LayerNorm): LayerNorm((1024,), eps=1e-12, elementwise_affine=True)
          (dropout): Dropout(p=0.0, inplace=False)
        )
      )
      (8): BertLayer(
        (attention): BertAttention(
          (self): BertSelfAttention(
            (query): Linear(in_features=1024, out_features=1024, bias=True)
            (key): Linear(in_features=1024, out_features=1024, bias=True)
            (value): Linear(in_features=1024, out_features=1024, bias=True)
            (dropout): Dropout(p=0.0, inplace=False)
          )
          (output): BertSelfOutput(
            (dense): Linear(in_features=1024, out_features=1024, bias=True)
            (LayerNorm): LayerNorm((1024,), eps=1e-12, elementwise_affine=True)
            (dropout): Dropout(p=0.0, inplace=False)
          )
        )
        (intermediate): BertIntermediate(
          (dense): Linear(in_features=1024, out_features=4096, bias=True)
        )
        (output): BertOutput(
          (dense): Linear(in_features=4096, out_features=1024, bias=True)
          (LayerNorm): LayerNorm((1024,), eps=1e-12, elementwise_affine=True)
          (dropout): Dropout(p=0.0, inplace=False)
        )
      )
      (9): BertLayer(
        (attention): BertAttention(
          (self): BertSelfAttention(
            (query): Linear(in_features=1024, out_features=1024, bias=True)
            (key): Linear(in_features=1024, out_features=1024, bias=True)
            (value): Linear(in_features=1024, out_features=1024, bias=True)
            (dropout): Dropout(p=0.0, inplace=False)
          )
          (output): BertSelfOutput(
            (dense): Linear(in_features=1024, out_features=1024, bias=True)
            (LayerNorm): LayerNorm((1024,), eps=1e-12, elementwise_affine=True)
            (dropout): Dropout(p=0.0, inplace=False)
          )
        )
        (intermediate): BertIntermediate(
          (dense): Linear(in_features=1024, out_features=4096, bias=True)
        )
        (output): BertOutput(
          (dense): Linear(in_features=4096, out_features=1024, bias=True)
          (LayerNorm): LayerNorm((1024,), eps=1e-12, elementwise_affine=True)
          (dropout): Dropout(p=0.0, inplace=False)
        )
      )
      (10): BertLayer(
        (attention): BertAttention(
          (self): BertSelfAttention(
            (query): Linear(in_features=1024, out_features=1024, bias=True)
            (key): Linear(in_features=1024, out_features=1024, bias=True)
            (value): Linear(in_features=1024, out_features=1024, bias=True)
            (dropout): Dropout(p=0.0, inplace=False)
          )
          (output): BertSelfOutput(
            (dense): Linear(in_features=1024, out_features=1024, bias=True)
            (LayerNorm): LayerNorm((1024,), eps=1e-12, elementwise_affine=True)
            (dropout): Dropout(p=0.0, inplace=False)
          )
        )
        (intermediate): BertIntermediate(
          (dense): Linear(in_features=1024, out_features=4096, bias=True)
        )
        (output): BertOutput(
          (dense): Linear(in_features=4096, out_features=1024, bias=True)
          (LayerNorm): LayerNorm((1024,), eps=1e-12, elementwise_affine=True)
          (dropout): Dropout(p=0.0, inplace=False)
        )
      )
      (11): BertLayer(
        (attention): BertAttention(
          (self): BertSelfAttention(
            (query): Linear(in_features=1024, out_features=1024, bias=True)
            (key): Linear(in_features=1024, out_features=1024, bias=True)
            (value): Linear(in_features=1024, out_features=1024, bias=True)
            (dropout): Dropout(p=0.0, inplace=False)
          )
          (output): BertSelfOutput(
            (dense): Linear(in_features=1024, out_features=1024, bias=True)
            (LayerNorm): LayerNorm((1024,), eps=1e-12, elementwise_affine=True)
            (dropout): Dropout(p=0.0, inplace=False)
          )
        )
        (intermediate): BertIntermediate(
          (dense): Linear(in_features=1024, out_features=4096, bias=True)
        )
        (output): BertOutput(
          (dense): Linear(in_features=4096, out_features=1024, bias=True)
          (LayerNorm): LayerNorm((1024,), eps=1e-12, elementwise_affine=True)
          (dropout): Dropout(p=0.0, inplace=False)
        )
      )
      (12): BertLayer(
        (attention): BertAttention(
          (self): BertSelfAttention(
            (query): Linear(in_features=1024, out_features=1024, bias=True)
            (key): Linear(in_features=1024, out_features=1024, bias=True)
            (value): Linear(in_features=1024, out_features=1024, bias=True)
            (dropout): Dropout(p=0.0, inplace=False)
          )
          (output): BertSelfOutput(
            (dense): Linear(in_features=1024, out_features=1024, bias=True)
            (LayerNorm): LayerNorm((1024,), eps=1e-12, elementwise_affine=True)
            (dropout): Dropout(p=0.0, inplace=False)
          )
        )
        (intermediate): BertIntermediate(
          (dense): Linear(in_features=1024, out_features=4096, bias=True)
        )
        (output): BertOutput(
          (dense): Linear(in_features=4096, out_features=1024, bias=True)
          (LayerNorm): LayerNorm((1024,), eps=1e-12, elementwise_affine=True)
          (dropout): Dropout(p=0.0, inplace=False)
        )
      )
      (13): BertLayer(
        (attention): BertAttention(
          (self): BertSelfAttention(
            (query): Linear(in_features=1024, out_features=1024, bias=True)
            (key): Linear(in_features=1024, out_features=1024, bias=True)
            (value): Linear(in_features=1024, out_features=1024, bias=True)
            (dropout): Dropout(p=0.0, inplace=False)
          )
          (output): BertSelfOutput(
            (dense): Linear(in_features=1024, out_features=1024, bias=True)
            (LayerNorm): LayerNorm((1024,), eps=1e-12, elementwise_affine=True)
            (dropout): Dropout(p=0.0, inplace=False)
          )
        )
        (intermediate): BertIntermediate(
          (dense): Linear(in_features=1024, out_features=4096, bias=True)
        )
        (output): BertOutput(
          (dense): Linear(in_features=4096, out_features=1024, bias=True)
          (LayerNorm): LayerNorm((1024,), eps=1e-12, elementwise_affine=True)
          (dropout): Dropout(p=0.0, inplace=False)
        )
      )
      (14): BertLayer(
        (attention): BertAttention(
          (self): BertSelfAttention(
            (query): Linear(in_features=1024, out_features=1024, bias=True)
            (key): Linear(in_features=1024, out_features=1024, bias=True)
            (value): Linear(in_features=1024, out_features=1024, bias=True)
            (dropout): Dropout(p=0.0, inplace=False)
          )
          (output): BertSelfOutput(
            (dense): Linear(in_features=1024, out_features=1024, bias=True)
            (LayerNorm): LayerNorm((1024,), eps=1e-12, elementwise_affine=True)
            (dropout): Dropout(p=0.0, inplace=False)
          )
        )
        (intermediate): BertIntermediate(
          (dense): Linear(in_features=1024, out_features=4096, bias=True)
        )
        (output): BertOutput(
          (dense): Linear(in_features=4096, out_features=1024, bias=True)
          (LayerNorm): LayerNorm((1024,), eps=1e-12, elementwise_affine=True)
          (dropout): Dropout(p=0.0, inplace=False)
        )
      )
      (15): BertLayer(
        (attention): BertAttention(
          (self): BertSelfAttention(
            (query): Linear(in_features=1024, out_features=1024, bias=True)
            (key): Linear(in_features=1024, out_features=1024, bias=True)
            (value): Linear(in_features=1024, out_features=1024, bias=True)
            (dropout): Dropout(p=0.0, inplace=False)
          )
          (output): BertSelfOutput(
            (dense): Linear(in_features=1024, out_features=1024, bias=True)
            (LayerNorm): LayerNorm((1024,), eps=1e-12, elementwise_affine=True)
            (dropout): Dropout(p=0.0, inplace=False)
          )
        )
        (intermediate): BertIntermediate(
          (dense): Linear(in_features=1024, out_features=4096, bias=True)
        )
        (output): BertOutput(
          (dense): Linear(in_features=4096, out_features=1024, bias=True)
          (LayerNorm): LayerNorm((1024,), eps=1e-12, elementwise_affine=True)
          (dropout): Dropout(p=0.0, inplace=False)
        )
      )
      (16): BertLayer(
        (attention): BertAttention(
          (self): BertSelfAttention(
            (query): Linear(in_features=1024, out_features=1024, bias=True)
            (key): Linear(in_features=1024, out_features=1024, bias=True)
            (value): Linear(in_features=1024, out_features=1024, bias=True)
            (dropout): Dropout(p=0.0, inplace=False)
          )
          (output): BertSelfOutput(
            (dense): Linear(in_features=1024, out_features=1024, bias=True)
            (LayerNorm): LayerNorm((1024,), eps=1e-12, elementwise_affine=True)
            (dropout): Dropout(p=0.0, inplace=False)
          )
        )
        (intermediate): BertIntermediate(
          (dense): Linear(in_features=1024, out_features=4096, bias=True)
        )
        (output): BertOutput(
          (dense): Linear(in_features=4096, out_features=1024, bias=True)
          (LayerNorm): LayerNorm((1024,), eps=1e-12, elementwise_affine=True)
          (dropout): Dropout(p=0.0, inplace=False)
        )
      )
      (17): BertLayer(
        (attention): BertAttention(
          (self): BertSelfAttention(
            (query): Linear(in_features=1024, out_features=1024, bias=True)
            (key): Linear(in_features=1024, out_features=1024, bias=True)
            (value): Linear(in_features=1024, out_features=1024, bias=True)
            (dropout): Dropout(p=0.0, inplace=False)
          )
          (output): BertSelfOutput(
            (dense): Linear(in_features=1024, out_features=1024, bias=True)
            (LayerNorm): LayerNorm((1024,), eps=1e-12, elementwise_affine=True)
            (dropout): Dropout(p=0.0, inplace=False)
          )
        )
        (intermediate): BertIntermediate(
          (dense): Linear(in_features=1024, out_features=4096, bias=True)
        )
        (output): BertOutput(
          (dense): Linear(in_features=4096, out_features=1024, bias=True)
          (LayerNorm): LayerNorm((1024,), eps=1e-12, elementwise_affine=True)
          (dropout): Dropout(p=0.0, inplace=False)
        )
      )
      (18): BertLayer(
        (attention): BertAttention(
          (self): BertSelfAttention(
            (query): Linear(in_features=1024, out_features=1024, bias=True)
            (key): Linear(in_features=1024, out_features=1024, bias=True)
            (value): Linear(in_features=1024, out_features=1024, bias=True)
            (dropout): Dropout(p=0.0, inplace=False)
          )
          (output): BertSelfOutput(
            (dense): Linear(in_features=1024, out_features=1024, bias=True)
            (LayerNorm): LayerNorm((1024,), eps=1e-12, elementwise_affine=True)
            (dropout): Dropout(p=0.0, inplace=False)
          )
        )
        (intermediate): BertIntermediate(
          (dense): Linear(in_features=1024, out_features=4096, bias=True)
        )
        (output): BertOutput(
          (dense): Linear(in_features=4096, out_features=1024, bias=True)
          (LayerNorm): LayerNorm((1024,), eps=1e-12, elementwise_affine=True)
          (dropout): Dropout(p=0.0, inplace=False)
        )
      )
      (19): BertLayer(
        (attention): BertAttention(
          (self): BertSelfAttention(
            (query): Linear(in_features=1024, out_features=1024, bias=True)
            (key): Linear(in_features=1024, out_features=1024, bias=True)
            (value): Linear(in_features=1024, out_features=1024, bias=True)
            (dropout): Dropout(p=0.0, inplace=False)
          )
          (output): BertSelfOutput(
            (dense): Linear(in_features=1024, out_features=1024, bias=True)
            (LayerNorm): LayerNorm((1024,), eps=1e-12, elementwise_affine=True)
            (dropout): Dropout(p=0.0, inplace=False)
          )
        )
        (intermediate): BertIntermediate(
          (dense): Linear(in_features=1024, out_features=4096, bias=True)
        )
        (output): BertOutput(
          (dense): Linear(in_features=4096, out_features=1024, bias=True)
          (LayerNorm): LayerNorm((1024,), eps=1e-12, elementwise_affine=True)
          (dropout): Dropout(p=0.0, inplace=False)
        )
      )
      (20): BertLayer(
        (attention): BertAttention(
          (self): BertSelfAttention(
            (query): Linear(in_features=1024, out_features=1024, bias=True)
            (key): Linear(in_features=1024, out_features=1024, bias=True)
            (value): Linear(in_features=1024, out_features=1024, bias=True)
            (dropout): Dropout(p=0.0, inplace=False)
          )
          (output): BertSelfOutput(
            (dense): Linear(in_features=1024, out_features=1024, bias=True)
            (LayerNorm): LayerNorm((1024,), eps=1e-12, elementwise_affine=True)
            (dropout): Dropout(p=0.0, inplace=False)
          )
        )
        (intermediate): BertIntermediate(
          (dense): Linear(in_features=1024, out_features=4096, bias=True)
        )
        (output): BertOutput(
          (dense): Linear(in_features=4096, out_features=1024, bias=True)
          (LayerNorm): LayerNorm((1024,), eps=1e-12, elementwise_affine=True)
          (dropout): Dropout(p=0.0, inplace=False)
        )
      )
      (21): BertLayer(
        (attention): BertAttention(
          (self): BertSelfAttention(
            (query): Linear(in_features=1024, out_features=1024, bias=True)
            (key): Linear(in_features=1024, out_features=1024, bias=True)
            (value): Linear(in_features=1024, out_features=1024, bias=True)
            (dropout): Dropout(p=0.0, inplace=False)
          )
          (output): BertSelfOutput(
            (dense): Linear(in_features=1024, out_features=1024, bias=True)
            (LayerNorm): LayerNorm((1024,), eps=1e-12, elementwise_affine=True)
            (dropout): Dropout(p=0.0, inplace=False)
          )
        )
        (intermediate): BertIntermediate(
          (dense): Linear(in_features=1024, out_features=4096, bias=True)
        )
        (output): BertOutput(
          (dense): Linear(in_features=4096, out_features=1024, bias=True)
          (LayerNorm): LayerNorm((1024,), eps=1e-12, elementwise_affine=True)
          (dropout): Dropout(p=0.0, inplace=False)
        )
      )
      (22): BertLayer(
        (attention): BertAttention(
          (self): BertSelfAttention(
            (query): Linear(in_features=1024, out_features=1024, bias=True)
            (key): Linear(in_features=1024, out_features=1024, bias=True)
            (value): Linear(in_features=1024, out_features=1024, bias=True)
            (dropout): Dropout(p=0.0, inplace=False)
          )
          (output): BertSelfOutput(
            (dense): Linear(in_features=1024, out_features=1024, bias=True)
            (LayerNorm): LayerNorm((1024,), eps=1e-12, elementwise_affine=True)
            (dropout): Dropout(p=0.0, inplace=False)
          )
        )
        (intermediate): BertIntermediate(
          (dense): Linear(in_features=1024, out_features=4096, bias=True)
        )
        (output): BertOutput(
          (dense): Linear(in_features=4096, out_features=1024, bias=True)
          (LayerNorm): LayerNorm((1024,), eps=1e-12, elementwise_affine=True)
          (dropout): Dropout(p=0.0, inplace=False)
        )
      )
      (23): BertLayer(
        (attention): BertAttention(
          (self): BertSelfAttention(
            (query): Linear(in_features=1024, out_features=1024, bias=True)
            (key): Linear(in_features=1024, out_features=1024, bias=True)
            (value): Linear(in_features=1024, out_features=1024, bias=True)
            (dropout): Dropout(p=0.0, inplace=False)
          )
          (output): BertSelfOutput(
            (dense): Linear(in_features=1024, out_features=1024, bias=True)
            (LayerNorm): LayerNorm((1024,), eps=1e-12, elementwise_affine=True)
            (dropout): Dropout(p=0.0, inplace=False)
          )
        )
        (intermediate): BertIntermediate(
          (dense): Linear(in_features=1024, out_features=4096, bias=True)
        )
        (output): BertOutput(
          (dense): Linear(in_features=4096, out_features=1024, bias=True)
          (LayerNorm): LayerNorm((1024,), eps=1e-12, elementwise_affine=True)
          (dropout): Dropout(p=0.0, inplace=False)
        )
      )
      (24): BertLayer(
        (attention): BertAttention(
          (self): BertSelfAttention(
            (query): Linear(in_features=1024, out_features=1024, bias=True)
            (key): Linear(in_features=1024, out_features=1024, bias=True)
            (value): Linear(in_features=1024, out_features=1024, bias=True)
            (dropout): Dropout(p=0.0, inplace=False)
          )
          (output): BertSelfOutput(
            (dense): Linear(in_features=1024, out_features=1024, bias=True)
            (LayerNorm): LayerNorm((1024,), eps=1e-12, elementwise_affine=True)
            (dropout): Dropout(p=0.0, inplace=False)
          )
        )
        (intermediate): BertIntermediate(
          (dense): Linear(in_features=1024, out_features=4096, bias=True)
        )
        (output): BertOutput(
          (dense): Linear(in_features=4096, out_features=1024, bias=True)
          (LayerNorm): LayerNorm((1024,), eps=1e-12, elementwise_affine=True)
          (dropout): Dropout(p=0.0, inplace=False)
        )
      )
      (25): BertLayer(
        (attention): BertAttention(
          (self): BertSelfAttention(
            (query): Linear(in_features=1024, out_features=1024, bias=True)
            (key): Linear(in_features=1024, out_features=1024, bias=True)
            (value): Linear(in_features=1024, out_features=1024, bias=True)
            (dropout): Dropout(p=0.0, inplace=False)
          )
          (output): BertSelfOutput(
            (dense): Linear(in_features=1024, out_features=1024, bias=True)
            (LayerNorm): LayerNorm((1024,), eps=1e-12, elementwise_affine=True)
            (dropout): Dropout(p=0.0, inplace=False)
          )
        )
        (intermediate): BertIntermediate(
          (dense): Linear(in_features=1024, out_features=4096, bias=True)
        )
        (output): BertOutput(
          (dense): Linear(in_features=4096, out_features=1024, bias=True)
          (LayerNorm): LayerNorm((1024,), eps=1e-12, elementwise_affine=True)
          (dropout): Dropout(p=0.0, inplace=False)
        )
      )
      (26): BertLayer(
        (attention): BertAttention(
          (self): BertSelfAttention(
            (query): Linear(in_features=1024, out_features=1024, bias=True)
            (key): Linear(in_features=1024, out_features=1024, bias=True)
            (value): Linear(in_features=1024, out_features=1024, bias=True)
            (dropout): Dropout(p=0.0, inplace=False)
          )
          (output): BertSelfOutput(
            (dense): Linear(in_features=1024, out_features=1024, bias=True)
            (LayerNorm): LayerNorm((1024,), eps=1e-12, elementwise_affine=True)
            (dropout): Dropout(p=0.0, inplace=False)
          )
        )
        (intermediate): BertIntermediate(
          (dense): Linear(in_features=1024, out_features=4096, bias=True)
        )
        (output): BertOutput(
          (dense): Linear(in_features=4096, out_features=1024, bias=True)
          (LayerNorm): LayerNorm((1024,), eps=1e-12, elementwise_affine=True)
          (dropout): Dropout(p=0.0, inplace=False)
        )
      )
      (27): BertLayer(
        (attention): BertAttention(
          (self): BertSelfAttention(
            (query): Linear(in_features=1024, out_features=1024, bias=True)
            (key): Linear(in_features=1024, out_features=1024, bias=True)
            (value): Linear(in_features=1024, out_features=1024, bias=True)
            (dropout): Dropout(p=0.0, inplace=False)
          )
          (output): BertSelfOutput(
            (dense): Linear(in_features=1024, out_features=1024, bias=True)
            (LayerNorm): LayerNorm((1024,), eps=1e-12, elementwise_affine=True)
            (dropout): Dropout(p=0.0, inplace=False)
          )
        )
        (intermediate): BertIntermediate(
          (dense): Linear(in_features=1024, out_features=4096, bias=True)
        )
        (output): BertOutput(
          (dense): Linear(in_features=4096, out_features=1024, bias=True)
          (LayerNorm): LayerNorm((1024,), eps=1e-12, elementwise_affine=True)
          (dropout): Dropout(p=0.0, inplace=False)
        )
      )
      (28): BertLayer(
        (attention): BertAttention(
          (self): BertSelfAttention(
            (query): Linear(in_features=1024, out_features=1024, bias=True)
            (key): Linear(in_features=1024, out_features=1024, bias=True)
            (value): Linear(in_features=1024, out_features=1024, bias=True)
            (dropout): Dropout(p=0.0, inplace=False)
          )
          (output): BertSelfOutput(
            (dense): Linear(in_features=1024, out_features=1024, bias=True)
            (LayerNorm): LayerNorm((1024,), eps=1e-12, elementwise_affine=True)
            (dropout): Dropout(p=0.0, inplace=False)
          )
        )
        (intermediate): BertIntermediate(
          (dense): Linear(in_features=1024, out_features=4096, bias=True)
        )
        (output): BertOutput(
          (dense): Linear(in_features=4096, out_features=1024, bias=True)
          (LayerNorm): LayerNorm((1024,), eps=1e-12, elementwise_affine=True)
          (dropout): Dropout(p=0.0, inplace=False)
        )
      )
      (29): BertLayer(
        (attention): BertAttention(
          (self): BertSelfAttention(
            (query): Linear(in_features=1024, out_features=1024, bias=True)
            (key): Linear(in_features=1024, out_features=1024, bias=True)
            (value): Linear(in_features=1024, out_features=1024, bias=True)
            (dropout): Dropout(p=0.0, inplace=False)
          )
          (output): BertSelfOutput(
            (dense): Linear(in_features=1024, out_features=1024, bias=True)
            (LayerNorm): LayerNorm((1024,), eps=1e-12, elementwise_affine=True)
            (dropout): Dropout(p=0.0, inplace=False)
          )
        )
        (intermediate): BertIntermediate(
          (dense): Linear(in_features=1024, out_features=4096, bias=True)
        )
        (output): BertOutput(
          (dense): Linear(in_features=4096, out_features=1024, bias=True)
          (LayerNorm): LayerNorm((1024,), eps=1e-12, elementwise_affine=True)
          (dropout): Dropout(p=0.0, inplace=False)
        )
      )
    )
  )
  (pooler): BertPooler(
    (dense): Linear(in_features=1024, out_features=1024, bias=True)
    (activation): Tanh()
  )
)
Namespace(dataset='proteinnet', exp_name='edge_features_contact_prot_bert', features=['contact_map'], max_seq_len=512, min_attn=0.3, model='bert', model_dir=None, model_version='prot_bert', no_cuda=False, num_sequences=5000, seed=123, shuffle=True)
Layers: 30
Heads: 16
Loading dataset
[<protein_attention.attention_analysis.features.ContactMapFeature object at 0x7f222ea3c100>]
…
